…
env MiniGrid-FourRooms-v1 --model four --k 0 --frames 204800 --test 0

Namespace(algo='ppo', batch_size=256, clip_eps=0.2, discount=0.99, entropy_coef=0.01, env='MiniGrid-FourRooms-v1', epochs=4, frames=204800, frames_per_proc=None, gae_lambda=0.95, k=0, log_interval=1, lr=0.001, max_grad_norm=0.5, mem=False, model='four', optim_alpha=0.99, optim_eps=1e-08, procs=16, recurrence=1, save_interval=10, seed=1, test=0, text=False, value_loss_coef=0.5)

Device: cpu

Environments loaded

Training status loaded

Observations preprocessor loaded
Model loaded

ACModel(
  (image_conv): Sequential(
    (0): Conv2d(3, 16, kernel_size=(2, 2), stride=(1, 1))
    (1): ReLU()
    (2): MaxPool2d(kernel_size=(2, 2), stride=(2, 2), padding=0, dilation=1, ceil_mode=False)
    (3): Conv2d(16, 32, kernel_size=(2, 2), stride=(1, 1))
    (4): ReLU()
    (5): Conv2d(32, 64, kernel_size=(2, 2), stride=(1, 1))
    (6): ReLU()
  )
  (actor): Sequential(
    (0): Linear(in_features=64, out_features=64, bias=True)
    (1): Tanh()
    (2): Linear(in_features=64, out_features=7, bias=True)
  )
  (critic): Sequential(
    (0): Linear(in_features=64, out_features=64, bias=True)
    (1): Tanh()
    (2): Linear(in_features=64, out_features=1, bias=True)
  )
)

Optimizer loaded

/Users/yunhaoyang/Desktop/spinningup/rl-starter-files/scripts/train.py --algo ppo --env MiniGrid-FourRooms-v1 --model four --k 0 --frames 204800 --test 0

Namespace(algo='ppo', batch_size=256, clip_eps=0.2, discount=0.99, entropy_coef=0.01, env='MiniGrid-FourRooms-v1', epochs=4, frames=204800, frames_per_proc=None, gae_lambda=0.95, k=0, log_interval=1, lr=0.001, max_grad_norm=0.5, mem=False, model='four', optim_alpha=0.99, optim_eps=1e-08, procs=16, recurrence=1, save_interval=10, seed=1, test=0, text=False, value_loss_coef=0.5)

Device: cpu

Environments loaded

Training status loaded

Observations preprocessor loaded
Model loaded

ACModel(
  (image_conv): Sequential(
    (0): Conv2d(3, 16, kernel_size=(2, 2), stride=(1, 1))
    (1): ReLU()
    (2): MaxPool2d(kernel_size=(2, 2), stride=(2, 2), padding=0, dilation=1, ceil_mode=False)
    (3): Conv2d(16, 32, kernel_size=(2, 2), stride=(1, 1))
    (4): ReLU()
    (5): Conv2d(32, 64, kernel_size=(2, 2), stride=(1, 1))
    (6): ReLU()
  )
  (actor): Sequential(
    (0): Linear(in_features=64, out_features=64, bias=True)
    (1): Tanh()
    (2): Linear(in_features=64, out_features=7, bias=True)
  )
  (critic): Sequential(
    (0): Linear(in_features=64, out_features=64, bias=True)
    (1): Tanh()
    (2): Linear(in_features=64, out_features=1, bias=True)
  )
)

Optimizer loaded

U 1 | F 002048 | FPS 2708 | D 0 | rR:μσmM 0.00 0.00 0.00 0.00 | F:μσmM 0.0 0.0 0 0 | H 1.929 | V -0.098 | pL -0.012 | vL 0.001 | ∇ 0.036
U 2 | F 004096 | FPS 2790 | D 1 | rR:μσmM 0.00 0.00 0.00 0.00 | F:μσmM 0.0 0.0 0 0 | H 1.934 | V -0.086 | pL -0.015 | vL 0.000 | ∇ 0.011
U 3 | F 006144 | FPS 2810 | D 2 | rR:μσmM 0.00 0.00 0.00 0.00 | F:μσmM 0.0 0.0 0 0 | H 1.939 | V -0.075 | pL -0.013 | vL 0.000 | ∇ 0.008
…
